…
dels/Reuters/Reuters_GDGNNMODEL/Reuters_topic30_GDGNNMODEL_ns1_ench128_ni300_nw300_hop1_numpath50_edgethres_0_gcn_epoch_2000_temp1.00-0.30_prior_typeDir2_0.50_Adam_m0.90_lr0.0010_0_1234_stopTrue_fixFalse_wordTrue_tdFalse_reconFalse_mrTrue_0.10_numneigh50.00/model.pt', seed=1234, taskid=0, td_ratio=0.1, use_mr=True, use_recon=False, use_td=False, variance=0.995, wdecay=0.0001, word=True)
data: 10727 samples  avg 63.02 words
finish reading datasets, vocab size is 5907
dropped sentences: 61
edge number: 19382
GDGNNModel(
  (encoder): RGCNDir2encoder(
    (enc1_gnn1): RGCN(
      (entity_embedding): Embedding(4171, 100)
      (conv1): RGCNConv(100, 100, num_relations=76)
      (conv2): RGCNConv(100, 100, num_relations=76)
    )
    (gcn_proj): Sequential(
      (0): Linear(in_features=100, out_features=300, bias=True)
      (1): Linear(in_features=300, out_features=600, bias=True)
      (2): LeakyReLU(negative_slope=0.01, inplace=True)
      (3): Linear(in_features=600, out_features=300, bias=True)
    )
    (bn_gnn1): BatchNorm1d(300, eps=1e-05, momentum=0.1, affine=True, track_running_stats=True)
    (enc2_fc1): Linear(in_features=600, out_features=128, bias=True)
    (enc2_fc2): Linear(in_features=600, out_features=128, bias=True)
    (enc2_drop): Dropout(p=0.2, inplace=False)
    (mean_fc): Linear(in_features=128, out_features=30, bias=True)
    (mean_bn): BatchNorm1d(30, eps=1e-05, momentum=0.1, affine=True, track_running_stats=True)
    (logvar_fc): Linear(in_features=128, out_features=30, bias=True)
    (logvar_bn): BatchNorm1d(30, eps=1e-05, momentum=0.1, affine=True, track_running_stats=True)
    (phi_fc): Linear(in_features=728, out_features=30, bias=True)
    (phi_bn): BatchNorm1d(30, eps=1e-05, momentum=0.1, affine=True, track_running_stats=True)
  )
  (topic_linear): Linear(in_features=900, out_features=64, bias=False)
)
paramteres 4726554
trainable paramteres 4726494
Epoch 0, iter 0, loss 709.8871 ,recon_word 694.2742 ,recon_edgew -0.0197 ,recon_structure 22.8264 ,p_edge -11.4509 ,KL1 15.0755 ,KL2 128.0680 ,mr_loss 5.3743, time elapsed 2.02s
Epoch 0, iter 13, loss 565.0418 ,recon_word 549.4458 ,recon_edgew -0.0003 ,recon_structure 18.4513 ,p_edge -9.3598 ,KL1 15.0754 ,KL2 100.0559 ,mr_loss 5.2056, time elapsed 18.48s
…
